Model: "model_1"
__________________________________________________________________________________________________
Layer (type)                    Output Shape         Param #     Connected to                     
==================================================================================================
x (InputLayer)                  (None, 1)            0                                            
__________________________________________________________________________________________________
y (InputLayer)                  (None, 1)            0                                            
__________________________________________________________________________________________________
conct_1 (Concatenate)           (None, 2)            0           x[0][0]                          
                                                                 y[0][0]                          
__________________________________________________________________________________________________
conct_2 (Concatenate)           (None, 2)            0           x[0][0]                          
                                                                 y[0][0]                          
__________________________________________________________________________________________________
D40b_1 (Dense)                  (None, 40)           120         conct_1[0][0]                    
__________________________________________________________________________________________________
D40b_5 (Dense)                  (None, 40)           120         conct_2[0][0]                    
__________________________________________________________________________________________________
tanh_1 (Activation)             (None, 40)           0           D40b_1[0][0]                     
__________________________________________________________________________________________________
tanh_5 (Activation)             (None, 40)           0           D40b_5[0][0]                     
__________________________________________________________________________________________________
D40b_2 (Dense)                  (None, 40)           1640        tanh_1[0][0]                     
__________________________________________________________________________________________________
D40b_6 (Dense)                  (None, 40)           1640        tanh_5[0][0]                     
__________________________________________________________________________________________________
conct_3 (Concatenate)           (None, 2)            0           x[0][0]                          
                                                                 y[0][0]                          
__________________________________________________________________________________________________
conct_4 (Concatenate)           (None, 2)            0           x[0][0]                          
                                                                 y[0][0]                          
__________________________________________________________________________________________________
conct_5 (Concatenate)           (None, 2)            0           x[0][0]                          
                                                                 y[0][0]                          
__________________________________________________________________________________________________
tanh_2 (Activation)             (None, 40)           0           D40b_2[0][0]                     
__________________________________________________________________________________________________
tanh_6 (Activation)             (None, 40)           0           D40b_6[0][0]                     
__________________________________________________________________________________________________
D40b_9 (Dense)                  (None, 40)           120         conct_3[0][0]                    
__________________________________________________________________________________________________
D40b_13 (Dense)                 (None, 40)           120         conct_4[0][0]                    
__________________________________________________________________________________________________
D40b_17 (Dense)                 (None, 40)           120         conct_5[0][0]                    
__________________________________________________________________________________________________
D40b_3 (Dense)                  (None, 40)           1640        tanh_2[0][0]                     
__________________________________________________________________________________________________
D40b_7 (Dense)                  (None, 40)           1640        tanh_6[0][0]                     
__________________________________________________________________________________________________
tanh_9 (Activation)             (None, 40)           0           D40b_9[0][0]                     
__________________________________________________________________________________________________
tanh_13 (Activation)            (None, 40)           0           D40b_13[0][0]                    
__________________________________________________________________________________________________
tanh_17 (Activation)            (None, 40)           0           D40b_17[0][0]                    
__________________________________________________________________________________________________
tanh_3 (Activation)             (None, 40)           0           D40b_3[0][0]                     
__________________________________________________________________________________________________
tanh_7 (Activation)             (None, 40)           0           D40b_7[0][0]                     
__________________________________________________________________________________________________
D40b_10 (Dense)                 (None, 40)           1640        tanh_9[0][0]                     
__________________________________________________________________________________________________
D40b_14 (Dense)                 (None, 40)           1640        tanh_13[0][0]                    
__________________________________________________________________________________________________
D40b_18 (Dense)                 (None, 40)           1640        tanh_17[0][0]                    
__________________________________________________________________________________________________
D40b_4 (Dense)                  (None, 40)           1640        tanh_3[0][0]                     
__________________________________________________________________________________________________
D40b_8 (Dense)                  (None, 40)           1640        tanh_7[0][0]                     
__________________________________________________________________________________________________
tanh_10 (Activation)            (None, 40)           0           D40b_10[0][0]                    
__________________________________________________________________________________________________
tanh_14 (Activation)            (None, 40)           0           D40b_14[0][0]                    
__________________________________________________________________________________________________
tanh_18 (Activation)            (None, 40)           0           D40b_18[0][0]                    
__________________________________________________________________________________________________
tanh_4 (Activation)             (None, 40)           0           D40b_4[0][0]                     
__________________________________________________________________________________________________
tanh_8 (Activation)             (None, 40)           0           D40b_8[0][0]                     
__________________________________________________________________________________________________
D40b_11 (Dense)                 (None, 40)           1640        tanh_10[0][0]                    
__________________________________________________________________________________________________
D40b_15 (Dense)                 (None, 40)           1640        tanh_14[0][0]                    
__________________________________________________________________________________________________
D40b_19 (Dense)                 (None, 40)           1640        tanh_18[0][0]                    
__________________________________________________________________________________________________
conct_7 (Concatenate)           (None, 2)            0           x[0][0]                          
                                                                 y[0][0]                          
__________________________________________________________________________________________________
Uxy (Field)                     (None, 1)            41          tanh_4[0][0]                     
__________________________________________________________________________________________________
Vxy (Field)                     (None, 1)            41          tanh_8[0][0]                     
__________________________________________________________________________________________________
tanh_11 (Activation)            (None, 40)           0           D40b_11[0][0]                    
__________________________________________________________________________________________________
tanh_15 (Activation)            (None, 40)           0           D40b_15[0][0]                    
__________________________________________________________________________________________________
tanh_19 (Activation)            (None, 40)           0           D40b_19[0][0]                    
__________________________________________________________________________________________________
lame2 (ParameterBase)           (None, 1)            3           conct_7[0][0]                    
__________________________________________________________________________________________________
conct_6 (Concatenate)           (None, 2)            0           x[0][0]                          
                                                                 y[0][0]                          
__________________________________________________________________________________________________
D40b_12 (Dense)                 (None, 40)           1640        tanh_11[0][0]                    
__________________________________________________________________________________________________
D40b_16 (Dense)                 (None, 40)           1640        tanh_15[0][0]                    
__________________________________________________________________________________________________
D40b_20 (Dense)                 (None, 40)           1640        tanh_19[0][0]                    
__________________________________________________________________________________________________
mul/1 (Lambda)                  (None, 1)            0           lame2[0][0]                      
__________________________________________________________________________________________________
lame1 (ParameterBase)           (None, 1)            3           conct_6[0][0]                    
__________________________________________________________________________________________________
Grad_Uxy_y/lambda_6 (Lambda)    (None, 1)            0           Uxy[0][0]                        
__________________________________________________________________________________________________
Grad_Vxy_x/lambda_7 (Lambda)    (None, 1)            0           Vxy[0][0]                        
__________________________________________________________________________________________________
tanh_12 (Activation)            (None, 40)           0           D40b_12[0][0]                    
__________________________________________________________________________________________________
tanh_16 (Activation)            (None, 40)           0           D40b_16[0][0]                    
__________________________________________________________________________________________________
tanh_20 (Activation)            (None, 40)           0           D40b_20[0][0]                    
__________________________________________________________________________________________________
Grad_Uxy_x/lambda_4 (Lambda)    (None, 1)            0           Uxy[0][0]                        
__________________________________________________________________________________________________
add/2 (Lambda)                  (None, 1)            0           mul/1[0][0]                      
                                                                 lame1[0][0]                      
__________________________________________________________________________________________________
Grad_Vxy_y/lambda_5 (Lambda)    (None, 1)            0           Vxy[0][0]                        
__________________________________________________________________________________________________
add/8 (Lambda)                  (None, 1)            0           Grad_Uxy_y/lambda_6[0][0]        
                                                                 Grad_Vxy_x/lambda_7[0][0]        
__________________________________________________________________________________________________
Sxx (Field)                     (None, 1)            41          tanh_12[0][0]                    
__________________________________________________________________________________________________
Syy (Field)                     (None, 1)            41          tanh_16[0][0]                    
__________________________________________________________________________________________________
Sxy (Field)                     (None, 1)            41          tanh_20[0][0]                    
__________________________________________________________________________________________________
mul/10 (Lambda)                 (None, 1)            0           Grad_Uxy_x/lambda_4[0][0]        
                                                                 add/2[0][0]                      
__________________________________________________________________________________________________
mul/11 (Lambda)                 (None, 1)            0           Grad_Vxy_y/lambda_5[0][0]        
                                                                 lame1[0][0]                      
__________________________________________________________________________________________________
mul/14 (Lambda)                 (None, 1)            0           Grad_Vxy_y/lambda_5[0][0]        
                                                                 add/2[0][0]                      
__________________________________________________________________________________________________
mul/15 (Lambda)                 (None, 1)            0           Grad_Uxy_x/lambda_4[0][0]        
                                                                 lame1[0][0]                      
__________________________________________________________________________________________________
mul/9 (Lambda)                  (None, 1)            0           add/8[0][0]                      
__________________________________________________________________________________________________
mul/3 (Lambda)                  (None, 1)            0           lame2[0][0]                      
__________________________________________________________________________________________________
add/12 (Lambda)                 (None, 1)            0           mul/10[0][0]                     
                                                                 mul/11[0][0]                     
__________________________________________________________________________________________________
add/16 (Lambda)                 (None, 1)            0           mul/14[0][0]                     
                                                                 mul/15[0][0]                     
__________________________________________________________________________________________________
mul/18 (Lambda)                 (None, 1)            0           mul/9[0][0]                      
                                                                 mul/3[0][0]                      
__________________________________________________________________________________________________
Grad_Sxx_x/lambda_20 (Lambda)   (None, 1)            0           Sxx[0][0]                        
__________________________________________________________________________________________________
Grad_Sxy_y/lambda_21 (Lambda)   (None, 1)            0           Sxy[0][0]                        
__________________________________________________________________________________________________
Grad_Sxy_x/lambda_23 (Lambda)   (None, 1)            0           Sxy[0][0]                        
__________________________________________________________________________________________________
Grad_Syy_y/lambda_24 (Lambda)   (None, 1)            0           Syy[0][0]                        
__________________________________________________________________________________________________
sub/13 (Lambda)                 (None, 1)            0           Sxx[0][0]                        
                                                                 add/12[0][0]                     
__________________________________________________________________________________________________
sub/17 (Lambda)                 (None, 1)            0           Syy[0][0]                        
                                                                 add/16[0][0]                     
__________________________________________________________________________________________________
sub/19 (Lambda)                 (None, 1)            0           Sxy[0][0]                        
                                                                 mul/18[0][0]                     
__________________________________________________________________________________________________
add/22 (Lambda)                 (None, 1)            0           Grad_Sxx_x/lambda_20[0][0]       
                                                                 Grad_Sxy_y/lambda_21[0][0]       
__________________________________________________________________________________________________
add/25 (Lambda)                 (None, 1)            0           Grad_Sxy_x/lambda_23[0][0]       
                                                                 Grad_Syy_y/lambda_24[0][0]       
==================================================================================================
Total params: 25,411
Trainable params: 25,407
Non-trainable params: 4
__________________________________________________________________________________________________
